Models/NLPmodels/BERTopic_v1/ctfidf.safetensors (safetensors, 441300 bytes, 5 tensors)

data f8 [28861]
0.00029928835754373966 0.00014964417877186983 0.000163104976262004 0.000163104976262004 0.0007104842137467207 0.000163104976262004 0.00014177193581131397 0.000163104976262004
0.000163104976262004 0.0008431948575692881 0.00013185732419803323 0.00014177193581131397 0.000163104976262004 0.00014964417877186983 0.00029928835754373966 0.00028354387162262795
0.0005132795948105465 0.000163104976262004 0.000163104976262004 0.000163104976262004 0.00029928835754373966 0.00014964417877186983 0.00029928835754373966 0.0002723755259096359
0.000163104976262004 0.00028354387162262795 0.0002723755259096359 0.00029928835754373966 0.000425315807433942 0.000163104976262004 0.0006137005079646321 0.000163104976262004
0.00029928835754373966 0.000375989171829066 0.00014964417877186983 0.00014964417877186983 0.00029928835754373966 0.00026371464839606646 0.00038495969610790985 0.0013887052240503348
0.000163104976262004 0.000425315807433942 0.00014964417877186983 0.011396958904616747 0.000163104976262004 0.000425315807433942 0.0005132795948105465 0.00014964417877186983
0.000163104976262004 0.00014964417877186983 0.000425315807433942 0.00014964417877186983 0.00029928835754373966 0.000163104976262004 0.000163104976262004 0.00014964417877186983
0.000163104976262004 0.0008431948575692881 0.000163104976262004 0.00029928835754373966 0.000425315807433942 0.000163104976262004 0.00014964417877186983 0.00029928835754373966
0.000163104976262004 0.000163104976262004 0.0013409472386414904 0.0006592866209901661 0.000163104976262004 0.003841998338773873 0.0004909604063717057 0.00022666086395838278
0.004807588603936942 0.000163104976262004 0.000163104976262004 0.0006137005079646321 0.00062664861971511 0.000163104976262004 0.00029928835754373966 0.00028354387162262795
0.00029928835754373966 0.002572928437693322 0.000163104976262004 0.00029928835754373966 0.0010070565487477097 0.000240912816448368 0.0010067956607706572 0.0005386823205914781
0.005407286469273324 0.00014964417877186983 0.000163104976262004 0.000163104976262004 0.000163104976262004 0.000163104976262004 0.0009066434558335311 0.011790948803017898
0.000163104976262004 0.0032897305672549893 0.00014177193581131397 0.000163104976262004 0.00014964417877186983 0.000163104976262004 0.00025663979740527323 0.00014964417877186983
0.00011189517208307885 0.0016204588812468084 0.000828898249371174 0.000163104976262004 0.000163104976262004 0.00022666086395838278 0.0002723755259096359 0.0002723755259096359
0.00028354387162262795 0.00029928835754373966 0.00014964417877186983 0.00014177193581131397 0.00014964417877186983 0.0018657777228549307 0.001289511993761025 0.0005920701781222671
0.0007699193922158197 0.000163104976262004 0.00029928835754373966 0.000163104976262004 0.0009325352110850127 0.0003955719725940997 0.00028354387162262795 0.0006415994935131831
0.000481825632896736 0.000163104976262004 0.0005132795948105465 0.001906422213231539 0.0003955719725940997 0.00060228204112092 0.0008183249989651745 0.0016591392181907246
0.0028944709184409814 0.000163104976262004 0.000163104976262004 0.000163104976262004 0.0003955719725940997 0.00028354387162262795 0.00028354387162262795 0.000163104976262004
0.00013618776295481794 0.000163104976262004 0.00013618776295481794 0.0011549182339641501 0.00014964417877186983 0.00026371464839606646 0.000163104976262004 0.00028354387162262795
0.000163104976262004 0.0010491021124706392 0.00028354387162262795 0.000163104976262004 0.0005013188957720881 0.0005132795948105465 0.000163104976262004 0.0005920701781222671
0.002279977976273847 0.000163104976262004 0.000163104976262004 0.000425315807433942 0.005926556346768233 0.000163104976262004 0.000163104976262004 0.0013887052240503348
0.00012532972394302202 0.000163104976262004 0.000163104976262004 0.000163104976262004 0.000163104976262004 0.002883474662593984 0.00029928835754373966 0.00028354387162262795
0.0018713310137081743 0.00028354387162262795 0.000163104976262004 0.000163104976262004 0.00014964417877186983 0.000163104976262004 0.0005447510518192717 0.00014964417877186983
0.0005447510518192717 0.00010499256672401364 0.000163104976262004 0.008251321486536086 0.00029928835754373966 0.0007569560629655085 0.002371559938888342 0.00029928835754373966
0.0006415994935131831 0.0010314978758780694 0.0019562754954481963 0.000963651265793472 0.001749937948348378 0.007614136167414391 0.00029928835754373966 0.000425315807433942
0.00014964417877186983 0.0011055927792329215 0.0001093099136645147 0.00028354387162262795 0.0006799825918751484 0.000163104976262004 0.0009532111066157695 0.00029928835754373966
0.0013409472386414904 0.00014964417877186983 0.00029928835754373966 0.00014177193581131397 0.0006713710324984731 0.00029928835754373966 0.000163104976262004 0.00038495969610790985
0.0002723755259096359 0.000804166859734031 0.0002723755259096359 0.000163104976262004 0.00029928835754373966 0.00029928835754373966 0.000163104976262004 0.007267841578458521
0.00013618776295481794 0.00022976195992400884 0.000163104976262004 0.0015810399592588946 0.00014177193581131397 0.00036136922467255205 0.0022413087643224643 0.00036136922467255205
0.000751978343658132 0.000163104976262004 0.000425315807433942 0.000163104976262004 0.000751978343658132 0.00014964417877186983 0.000783266204581552 0.0005274292967921329
0.00029928835754373966 0.000663355667539753 0.000163104976262004 0.0002723755259096359 0.00014177193581131397 0.00014177193581131397 0.0016976151950058346 0.0016054587192186412
0.007032533630230052 0.00029928835754373966 0.00014964417877186983 0.00014964417877186983 0.000163104976262004 0.0004890688738620491 0.00014964417877186983 0.0005406829021182203
00000000: 0565 2db5 399d 333f 0565 2db5 399d 233f
00000010: b77a e513 e560 253f b77a e513 e560 253f
00000020: cfd2 2e3b f947 473f b77a e513 e560 253f
00000030: ae6d d5a7 1395 223f b77a e513 e560 253f
00000040: b77a e513 e560 253f 1d6e 302b 3ba1 4b3f
00000050: a98a 53ca 6548 213f ae6d d5a7 1395 223f
00000060: b77a e513 e560 253f 0565 2db5 399d 233f
00000070: 0565 2db5 399d 333f ae6d d5a7 1395 323f
00000080: 40ad 6589 b3d1 403f b77a e513 e560 253f
00000090: b77a e513 e560 253f b77a e513 e560 253f
000000a0: 0565 2db5 399d 333f 0565 2db5 399d 233f
000000b0: 0565 2db5 399d 333f aaf7 dbf9 b3d9 313f
000000c0: b77a e513 e560 253f ae6d d5a7 1395 323f
000000d0: aaf7 dbf9 b3d9 313f 0565 2db5 399d 333f
000000e0: 8624 c07b 9ddf 3b3f b77a e513 e560 253f
000000f0: cf54 3dce 171c 443f b77a e513 e560 253f
00000100: 0565 2db5 399d 333f 920b 5832 0da4 383f
00000110: 0565 2db5 399d 233f 0565 2db5 399d 233f
00000120: 0565 2db5 399d 333f a98a 53ca 6548 313f
00000130: e083 184e 8d3a 393f 3262 59e1 a6c0 563f
00000140: b77a e513 e560 253f 8624 c07b 9ddf 3b3f
00000150: 0565 2db5 399d 233f 6b4a 27ee 4957 873f
00000160: b77a e513 e560 253f 8624 c07b 9ddf 3b3f
00000170: 40ad 6589 b3d1 403f 0565 2db5 399d 233f
00000180: b77a e513 e560 253f 0565 2db5 399d 233f
00000190: 8624 c07b 9ddf 3b3f 0565 2db5 399d 233f
000001a0: 0565 2db5 399d 333f b77a e513 e560 253f
000001b0: b77a e513 e560 253f 0565 2db5 399d 233f
000001c0: b77a e513 e560 253f 1d6e 302b 3ba1 4b3f
000001d0: b77a e513 e560 253f 0565 2db5 399d 333f
000001e0: 8624 c07b 9ddf 3b3f b77a e513 e560 253f
000001f0: 0565 2db5 399d 233f 0565 2db5 399d 333f
00000200: b77a e513 e560 253f b77a e513 e560 253f
00000210: 3fb5 4722 57f8 553f 536d e83c 7f9a 453f
00000220: b77a e513 e560 253f 2818 ec26 4179 6f3f
00000230: 40aa ca71 7916 403f 51ce f7fe 79b5 2d3f
00000240: 0e79 393d 1fb1 733f b77a e513 e560 253f
00000250: b77a e513 e560 253f cf54 3dce 171c 443f
00000260: a409 f4a9 b588 443f b77a e513 e560 253f
00000270: 0565 2db5 399d 333f ae6d d5a7 1395 323f
00000280: 0565 2db5 399d 333f 32bd d56f d213 653f
00000290: b77a e513 e560 253f 0565 2db5 399d 333f
000002a0: d044 4bbc e67f 503f b334 ee55 b193 2f3f
000002b0: dbf3 f39b ce7e 503f d776 9579 cba6 413f
000002c0: dee8 ba68 f325 763f 0565 2db5 399d 233f
000002d0: b77a e513 e560 253f b77a e513 e560 253f
000002e0: b77a e513 e560 253f b77a e513 e560 253f
000002f0: 51ce f7fe 79b5 4d3f 0070 fb5b da25 883f
00000300: b77a e513 e560 253f cd4d 5ea6 10f3 6a3f
00000310: ae6d d5a7 1395 223f b77a e513 e560 253f
00000320: 0565 2db5 399d 233f b77a e513 e560 253f
00000330: 40ad 6589 b3d1 303f 0565 2db5 399d 233f
00000340: 557a 306b 2855 1d3f 59e1 9079 b28c 5a3f
00000350: 9ba0 b66f 4d29 4b3f b77a e513 e560 253f
00000360: b77a e513 e560 253f 51ce f7fe 79b5 2d3f
00000370: aaf7 dbf9 b3d9 313f aaf7 dbf9 b3d9 313f
00000380: ae6d d5a7 1395 323f 0565 2db5 399d 333f
00000390: 0565 2db5 399d 233f ae6d d5a7 1395 223f
000003a0: 0565 2db5 399d 233f 8ef6 4793 a391 5e3f
000003b0: c0ff d2f5 9a20 553f 0105 a706 a566 433f
000003c0: e083 184e 8d3a 493f b77a e513 e560 253f
000003d0: 0565 2db5 399d 333f b77a e513 e560 253f
000003e0: a402 f31d ac8e 4e3f fe4f 7daf 98ec 393f
000003f0: ae6d d5a7 1395 323f 9018 bf6b 2006 453f
00000400: b334 ee55 b193 3f3f b77a e513 e560 253f
00000410: 40ad 6589 b3d1 403f 9581 b943 1d3c 5f3f
00000420: fe4f 7daf 98ec 393f f0e0 b4d5 4ebc 433f
00000430: 2cbc d48d 9bd0 4a3f 18fe 9f2b ef2e 5b3f
00000440: 15bb e23d 25b6 673f b77a e513 e560 253f
00000450: b77a e513 e560 253f b77a e513 e560 253f
00000460: fe4f 7daf 98ec 393f ae6d d5a7 1395 323f
00000470: ae6d d5a7 1395 323f b77a e513 e560 253f
00000480: aaf7 dbf9 b3d9 213f b77a e513 e560 253f
00000490: aaf7 dbf9 b3d9 213f 5af1 d702 14ec 523f
000004a0: 0565 2db5 399d 233f a98a 53ca 6548 313f
000004b0: b77a e513 e560 253f ae6d d5a7 1395 323f
000004c0: b77a e513 e560 253f 7cb1 d8d0 4030 513f
000004d0: ae6d d5a7 1395 323f b77a e513 e560 253f
000004e0: b707 9021 5e6d 403f 40ad 6589 b3d1 403f
000004f0: b77a e513 e560 253f 0105 a706 a566 433f
00000500: ab8f ffda 75ad 623f b77a e513 e560 253f
00000510: b77a e513 e560 253f 8624 c07b 9ddf 3b3f
00000520: aa0f ffda 7146 783f b77a e513 e560 253f
00000530: b77a e513 e560 253f 3262 59e1 a6c0 563f
00000540: b707 9021 5e6d 203f b77a e513 e560 253f
00000550: b77a e513 e560 253f b77a e513 e560 253f
00000560: b77a e513 e560 253f 116d fdab 159f 673f
00000570: 0565 2db5 399d 333f ae6d d5a7 1395 323f
00000580: f25b 3f60 eea8 5e3f ae6d d5a7 1395 323f
00000590: b77a e513 e560 253f b77a e513 e560 253f
000005a0: 0565 2db5 399d 233f b77a e513 e560 253f
000005b0: aaf7 dbf9 b3d9 413f 0565 2db5 399d 233f
000005c0: aaf7 dbf9 b3d9 413f 25bc c58f ee85 1b3f
000005d0: b77a e513 e560 253f 0bb7 779f 11e6 803f
000005e0: 0565 2db5 399d 333f 6a1a 79c4 cecd 483f
000005f0: abd0 188c 856d 633f 0565 2db5 399d 333f
00000600: 9018 bf6b 2006 453f ba77 2369 6ae6 503f
00000610: 0f1d cc68 9b06 603f b334 ee55 b193 4f3f
00000620: fb1c 8690 c5ab 5c3f abab 381d 0030 7f3f
00000630: 0565 2db5 399d 333f 8624 c07b 9ddf 3b3f
00000640: 0565 2db5 399d 233f 9683 1635 311d 523f
00000650: 35da 6b04 aaa7 1c3f ae6d d5a7 1395 323f
00000660: bdda 397f 1b48 463f b77a e513 e560 253f
00000670: 9581 b943 1d3c 4f3f 0565 2db5 399d 333f
00000680: 3fb5 4722 57f8 553f 0565 2db5 399d 233f
00000690: 0565 2db5 399d 333f ae6d d5a7 1395 223f
000006a0: c05b 6450 deff 453f 0565 2db5 399d 333f
000006b0: b77a e513 e560 253f e083 184e 8d3a 393f
000006c0: aaf7 dbf9 b3d9 313f 128f 792e d759 4a3f
000006d0: aaf7 dbf9 b3d9 313f b77a e513 e560 253f
000006e0: 0565 2db5 399d 333f 0565 2db5 399d 333f
000006f0: b77a e513 e560 253f 9895 455e e2c4 7d3f
00000700: aaf7 dbf9 b3d9 213f cb35 1d35 881d 2e3f
00000710: b77a e513 e560 253f e3c0 cbba 5ce7 593f
00000720: ae6d d5a7 1395 223f 87a7 7200 c5ae 373f
00000730: c1e1 f97a 5d5c 623f 87a7 7200 c5ae 373f
00000740: 920b 5832 0da4 483f b77a e513 e560 253f
00000750: 8624 c07b 9ddf 3b3f b77a e513 e560 253f
00000760: 920b 5832 0da4 483f 0565 2db5 399d 233f
00000770: 0b6b ca5d 83aa 493f a98a 53ca 6548 413f
00000780: 0565 2db5 399d 333f 1bd1 e772 a1bc 453f
00000790: b77a e513 e560 253f aaf7 dbf9 b3d9 313f
000007a0: ae6d d5a7 1395 223f ae6d d5a7 1395 223f
000007b0: 137b 996f 50d0 5b3f 257f 6c2c c84d 5a3f
000007c0: 8b9e 325f 25ce 7c3f 0565 2db5 399d 333f
000007d0: 0565 2db5 399d 233f 0565 2db5 399d 233f
000007e0: b77a e513 e560 253f 0f1d cc68 9b06 403f
000007f0: 0565 2db5 399d 233f b9c9 e8b0 93b7 413f

diag f8 [11812]
8.39615486303918 8.39615486303918 8.39615486303918 8.39615486303918 8.39615486303918 6.20073452615632 7.29799393975901 8.39615486303918
8.39615486303918 7.703233390639544 8.39615486303918 7.703233390639544 6.787619477742156 7.010537473625163 8.39615486303918 8.39615486303918
7.703233390639544 7.703233390639544 7.703233390639544 6.20073452615632 7.703233390639544 7.703233390639544 8.39615486303918 8.39615486303918
8.39615486303918 7.703233390639544 8.39615486303918 8.39615486303918 8.39615486303918 8.39615486303918 8.39615486303918 8.39615486303918
7.010537473625163 8.39615486303918 8.39615486303918 6.605523425515625 7.703233390639544 7.29799393975901 8.39615486303918 7.703233390639544
8.39615486303918 8.39615486303918 8.39615486303918 7.010537473625163 7.703233390639544 8.39615486303918 7.29799393975901 7.703233390639544
7.703233390639544 8.39615486303918 4.6443908991413725 8.39615486303918 6.787619477742156 6.318292209699074 7.29799393975901 8.39615486303918
8.39615486303918 7.703233390639544 7.29799393975901 8.39615486303918 8.39615486303918 8.39615486303918 8.39615486303918 8.39615486303918
8.39615486303918 8.39615486303918 7.703233390639544 8.39615486303918 8.39615486303918 8.39615486303918 7.703233390639544 7.010537473625163
7.703233390639544 8.39615486303918 8.39615486303918 8.39615486303918 7.010537473625163 5.309841615657539 6.451598199414944 8.39615486303918
7.703233390639544 8.39615486303918 7.703233390639544 5.455770856763978 8.39615486303918 8.39615486303918 6.605523425515625 6.787619477742156
8.39615486303918 7.703233390639544 7.703233390639544 8.39615486303918 8.39615486303918 8.39615486303918 8.39615486303918 6.605523425515625
8.39615486303918 8.39615486303918 8.39615486303918 8.39615486303918 6.0005143826279 8.39615486303918 5.455770856763978 6.451598199414944
8.39615486303918 8.39615486303918 8.39615486303918 8.39615486303918 8.39615486303918 8.39615486303918 8.39615486303918 7.703233390639544
8.39615486303918 8.39615486303918 8.39615486303918 8.39615486303918 7.703233390639544 7.703233390639544 8.39615486303918 6.451598199414944
7.010537473625163 8.39615486303918 8.39615486303918 7.010537473625163 6.787619477742156 6.605523425515625 7.703233390639544 7.29799393975901
8.39615486303918 6.787619477742156 8.39615486303918 8.39615486303918 8.39615486303918 7.29799393975901 8.39615486303918 6.605523425515625
7.703233390639544 7.010537473625163 8.39615486303918 8.39615486303918 6.605523425515625 8.39615486303918 8.39615486303918 8.39615486303918
8.39615486303918 8.39615486303918 8.39615486303918 8.39615486303918 7.703233390639544 8.39615486303918 8.39615486303918 8.39615486303918
8.39615486303918 8.39615486303918 6.787619477742156 7.29799393975901 8.39615486303918 8.39615486303918 8.39615486303918 8.39615486303918
8.39615486303918 8.39615486303918 8.39615486303918 8.39615486303918 6.451598199414944 8.39615486303918 8.39615486303918 8.39615486303918
8.39615486303918 8.39615486303918 8.39615486303918 7.29799393975901 8.39615486303918 7.703233390639544 7.703233390639544 8.39615486303918
8.39615486303918 8.39615486303918 7.703233390639544 7.703233390639544 7.29799393975901 8.39615486303918 8.39615486303918 8.39615486303918
8.39615486303918 6.605523425515625 8.39615486303918 7.703233390639544 8.39615486303918 8.39615486303918 8.39615486303918 8.39615486303918
8.39615486303918 8.39615486303918 7.29799393975901 5.143685801883428 8.39615486303918 7.703233390639544 8.39615486303918 7.703233390639544
8.39615486303918 3.9839006009836875 8.39615486303918 8.39615486303918 5.106169915602791 8.39615486303918 8.39615486303918 8.39615486303918
8.39615486303918 6.20073452615632 3.5876989027425807 8.39615486303918 6.451598199414944 8.39615486303918 7.010537473625163 6.318292209699074
8.39615486303918 7.703233390639544 5.913728205504102 7.703233390639544 8.39615486303918 7.010537473625163 8.39615486303918 8.39615486303918
7.29799393975901 7.703233390639544 7.010537473625163 4.691571620903307 5.509613232614532 7.010537473625163 7.703233390639544 5.626946425708224
7.010537473625163 8.39615486303918 4.5355074473330745 7.010537473625163 5.509613232614532 7.29799393975901 8.39615486303918 7.29799393975901
8.39615486303918 7.010537473625163 8.39615486303918 5.223279474973757 8.39615486303918 8.39615486303918 3.4057920730404656 7.703233390639544
7.010537473625163 8.39615486303918 6.787619477742156 7.703233390639544 5.913728205504102 3.927188327295809 6.787619477742156 7.703233390639544
00000000: 2dcf 69cf d4ca 2040 2dcf 69cf d4ca 2040
00000010: 2dcf 69cf d4ca 2040 2dcf 69cf d4ca 2040
00000020: 2dcf 69cf d4ca 2040 eb13 045a 8dcd 1840
00000030: 40af c652 2531 1d40 2dcf 69cf d4ca 2040
00000040: 2dcf 69cf d4ca 2040 1502 f969 1cd0 1e40
00000050: 2dcf 69cf d4ca 2040 1502 f969 1cd0 1e40
00000060: 7261 6ab8 8526 1b40 0069 e255 ca0a 1c40
00000070: 2dcf 69cf d4ca 2040 2dcf 69cf d4ca 2040
00000080: 1502 f969 1cd0 1e40 1502 f969 1cd0 1e40
00000090: 1502 f969 1cd0 1e40 eb13 045a 8dcd 1840
000000a0: 1502 f969 1cd0 1e40 1502 f969 1cd0 1e40
000000b0: 2dcf 69cf d4ca 2040 2dcf 69cf d4ca 2040
000000c0: 2dcf 69cf d4ca 2040 1502 f969 1cd0 1e40
000000d0: 2dcf 69cf d4ca 2040 2dcf 69cf d4ca 2040
000000e0: 2dcf 69cf d4ca 2040 2dcf 69cf d4ca 2040
000000f0: 2dcf 69cf d4ca 2040 2dcf 69cf d4ca 2040
00000100: 0069 e255 ca0a 1c40 2dcf 69cf d4ca 2040
00000110: 2dcf 69cf d4ca 2040 bd34 3655 0e6c 1a40
00000120: 1502 f969 1cd0 1e40 40af c652 2531 1d40
00000130: 2dcf 69cf d4ca 2040 1502 f969 1cd0 1e40
00000140: 2dcf 69cf d4ca 2040 2dcf 69cf d4ca 2040
00000150: 2dcf 69cf d4ca 2040 0069 e255 ca0a 1c40
00000160: 1502 f969 1cd0 1e40 2dcf 69cf d4ca 2040
00000170: 40af c652 2531 1d40 1502 f969 1cd0 1e40
00000180: 1502 f969 1cd0 1e40 2dcf 69cf d4ca 2040
00000190: e29b 3635 db93 1240 2dcf 69cf d4ca 2040
000001a0: 7261 6ab8 8526 1b40 98ea 9c64 ee45 1940
000001b0: 40af c652 2531 1d40 2dcf 69cf d4ca 2040
000001c0: 2dcf 69cf d4ca 2040 1502 f969 1cd0 1e40
000001d0: 40af c652 2531 1d40 2dcf 69cf d4ca 2040
000001e0: 2dcf 69cf d4ca 2040 2dcf 69cf d4ca 2040
000001f0: 2dcf 69cf d4ca 2040 2dcf 69cf d4ca 2040
00000200: 2dcf 69cf d4ca 2040 2dcf 69cf d4ca 2040
00000210: 1502 f969 1cd0 1e40 2dcf 69cf d4ca 2040
00000220: 2dcf 69cf d4ca 2040 2dcf 69cf d4ca 2040
00000230: 1502 f969 1cd0 1e40 0069 e255 ca0a 1c40
00000240: 1502 f969 1cd0 1e40 2dcf 69cf d4ca 2040
00000250: 2dcf 69cf d4ca 2040 2dcf 69cf d4ca 2040
00000260: 0069 e255 ca0a 1c40 77c1 d81e 473d 1540
00000270: bead 25c2 6fce 1940 2dcf 69cf d4ca 2040
00000280: 1502 f969 1cd0 1e40 2dcf 69cf d4ca 2040
00000290: 1502 f969 1cd0 1e40 b215 7198 b5d2 1540
000002a0: 2dcf 69cf d4ca 2040 2dcf 69cf d4ca 2040
000002b0: bd34 3655 0e6c 1a40 7261 6ab8 8526 1b40
000002c0: 2dcf 69cf d4ca 2040 1502 f969 1cd0 1e40
000002d0: 1502 f969 1cd0 1e40 2dcf 69cf d4ca 2040
000002e0: 2dcf 69cf d4ca 2040 2dcf 69cf d4ca 2040
000002f0: 2dcf 69cf d4ca 2040 bd34 3655 0e6c 1a40
00000300: 2dcf 69cf d4ca 2040 2dcf 69cf d4ca 2040
00000310: 2dcf 69cf d4ca 2040 2dcf 69cf d4ca 2040
00000320: 0242 a2d7 8600 1840 2dcf 69cf d4ca 2040
00000330: b215 7198 b5d2 1540 bead 25c2 6fce 1940
00000340: 2dcf 69cf d4ca 2040 2dcf 69cf d4ca 2040
00000350: 2dcf 69cf d4ca 2040 2dcf 69cf d4ca 2040
00000360: 2dcf 69cf d4ca 2040 2dcf 69cf d4ca 2040
00000370: 2dcf 69cf d4ca 2040 1502 f969 1cd0 1e40
00000380: 2dcf 69cf d4ca 2040 2dcf 69cf d4ca 2040
00000390: 2dcf 69cf d4ca 2040 2dcf 69cf d4ca 2040
000003a0: 1502 f969 1cd0 1e40 1502 f969 1cd0 1e40
000003b0: 2dcf 69cf d4ca 2040 bead 25c2 6fce 1940
000003c0: 0069 e255 ca0a 1c40 2dcf 69cf d4ca 2040
000003d0: 2dcf 69cf d4ca 2040 0069 e255 ca0a 1c40
000003e0: 7261 6ab8 8526 1b40 bd34 3655 0e6c 1a40
000003f0: 1502 f969 1cd0 1e40 40af c652 2531 1d40
00000400: 2dcf 69cf d4ca 2040 7261 6ab8 8526 1b40
00000410: 2dcf 69cf d4ca 2040 2dcf 69cf d4ca 2040
00000420: 2dcf 69cf d4ca 2040 40af c652 2531 1d40
00000430: 2dcf 69cf d4ca 2040 bd34 3655 0e6c 1a40
00000440: 1502 f969 1cd0 1e40 0069 e255 ca0a 1c40
00000450: 2dcf 69cf d4ca 2040 2dcf 69cf d4ca 2040
00000460: bd34 3655 0e6c 1a40 2dcf 69cf d4ca 2040
00000470: 2dcf 69cf d4ca 2040 2dcf 69cf d4ca 2040
00000480: 2dcf 69cf d4ca 2040 2dcf 69cf d4ca 2040
00000490: 2dcf 69cf d4ca 2040 2dcf 69cf d4ca 2040
000004a0: 1502 f969 1cd0 1e40 2dcf 69cf d4ca 2040
000004b0: 2dcf 69cf d4ca 2040 2dcf 69cf d4ca 2040
000004c0: 2dcf 69cf d4ca 2040 2dcf 69cf d4ca 2040
000004d0: 7261 6ab8 8526 1b40 40af c652 2531 1d40
000004e0: 2dcf 69cf d4ca 2040 2dcf 69cf d4ca 2040
000004f0: 2dcf 69cf d4ca 2040 2dcf 69cf d4ca 2040
00000500: 2dcf 69cf d4ca 2040 2dcf 69cf d4ca 2040
00000510: 2dcf 69cf d4ca 2040 2dcf 69cf d4ca 2040
00000520: bead 25c2 6fce 1940 2dcf 69cf d4ca 2040
00000530: 2dcf 69cf d4ca 2040 2dcf 69cf d4ca 2040
00000540: 2dcf 69cf d4ca 2040 2dcf 69cf d4ca 2040
00000550: 2dcf 69cf d4ca 2040 40af c652 2531 1d40
00000560: 2dcf 69cf d4ca 2040 1502 f969 1cd0 1e40
00000570: 1502 f969 1cd0 1e40 2dcf 69cf d4ca 2040
00000580: 2dcf 69cf d4ca 2040 2dcf 69cf d4ca 2040
00000590: 1502 f969 1cd0 1e40 1502 f969 1cd0 1e40
000005a0: 40af c652 2531 1d40 2dcf 69cf d4ca 2040
000005b0: 2dcf 69cf d4ca 2040 2dcf 69cf d4ca 2040
000005c0: 2dcf 69cf d4ca 2040 bd34 3655 0e6c 1a40
000005d0: 2dcf 69cf d4ca 2040 1502 f969 1cd0 1e40
000005e0: 2dcf 69cf d4ca 2040 2dcf 69cf d4ca 2040
000005f0: 2dcf 69cf d4ca 2040 2dcf 69cf d4ca 2040
00000600: 2dcf 69cf d4ca 2040 2dcf 69cf d4ca 2040
00000610: 40af c652 2531 1d40 97f4 ef5e 2293 1440
00000620: 2dcf 69cf d4ca 2040 1502 f969 1cd0 1e40
00000630: 2dcf 69cf d4ca 2040 1502 f969 1cd0 1e40
00000640: 2dcf 69cf d4ca 2040 dfea 3d47 07df 0f40
00000650: 2dcf 69cf d4ca 2040 2dcf 69cf d4ca 2040
00000660: 1055 6dce b76c 1440 2dcf 69cf d4ca 2040
00000670: 2dcf 69cf d4ca 2040 2dcf 69cf d4ca 2040
00000680: 2dcf 69cf d4ca 2040 eb13 045a 8dcd 1840
00000690: 5065 797b 9bb3 0c40 2dcf 69cf d4ca 2040
000006a0: bead 25c2 6fce 1940 2dcf 69cf d4ca 2040
000006b0: 0069 e255 ca0a 1c40 98ea 9c64 ee45 1940
000006c0: 2dcf 69cf d4ca 2040 1502 f969 1cd0 1e40
000006d0: a24a e05d a8a7 1740 1502 f969 1cd0 1e40
000006e0: 2dcf 69cf d4ca 2040 0069 e255 ca0a 1c40
000006f0: 2dcf 69cf d4ca 2040 2dcf 69cf d4ca 2040
00000700: 40af c652 2531 1d40 1502 f969 1cd0 1e40
00000710: 0069 e255 ca0a 1c40 547c da59 2bc4 1240
00000720: c6c0 1e0d d809 1640 0069 e255 ca0a 1c40
00000730: 1502 f969 1cd0 1e40 2d0b 6b3e fe81 1640
00000740: 0069 e255 ca0a 1c40 2dcf 69cf d4ca 2040
00000750: 703d 7410 5c24 1240 0069 e255 ca0a 1c40
00000760: c6c0 1e0d d809 1640 40af c652 2531 1d40
00000770: 2dcf 69cf d4ca 2040 40af c652 2531 1d40
00000780: 2dcf 69cf d4ca 2040 0069 e255 ca0a 1c40
00000790: 2dcf 69cf d4ca 2040 7785 eb5f a3e4 1440
000007a0: 2dcf 69cf d4ca 2040 2dcf 69cf d4ca 2040
000007b0: 8f7a 15ea 0f3f 0b40 1502 f969 1cd0 1e40
000007c0: 0069 e255 ca0a 1c40 2dcf 69cf d4ca 2040
000007d0: 7261 6ab8 8526 1b40 1502 f969 1cd0 1e40
000007e0: a24a e05d a8a7 1740 5fbf b7b6 e16a 0f40
000007f0: 7261 6ab8 8526 1b40 1502 f969 1cd0 1e40

indices i4 [28861]
11810 11806 11804 11801 11800 11799 11798 11796
11795 11794 11793 11791 11788 11787 11786 11785
11784 11783 11780 11778 11774 11773 11772 11770
11767 11766 11764 11763 11762 11761 11760 11759
11755 11754 11752 11751 11750 11749 11748 11747
11746 11744 11743 11742 11741 11740 11739 11738
11737 11736 11735 11734 11732 11731 11729 11728
11727 11726 11723 11721 11720 11719 11717 11715
11713 11712 11711 11709 11707 11706 11705 11704
11703 11701 11699 11697 11696 11694 11691 11688
11687 11686 11685 11683 11681 11680 11679 11678
11677 11676 11675 11674 11673 11672 11671 11669
11667 11666 11664 11663 11661 11660 11659 11658
11657 11655 11654 11653 11650 11647 11646 11645
11642 11640 11638 11637 11635 11633 11631 11630
11629 11628 11626 11625 11624 11623 11622 11621
11619 11617 11616 11615 11614 11612 11610 11607
11606 11605 11604 11602 11601 11599 11598 11597
11595 11594 11593 11592 11591 11590 11589 11588
11587 11586 11585 11584 11583 11582 11581 11579
11578 11577 11576 11575 11573 11572 11570 11567
11566 11565 11564 11562 11559 11557 11556 11555
11554 11553 11551 11549 11547 11546 11545 11544
11543 11542 11540 11538 11537 11535 11534 11533
11532 11530 11529 11528 11524 11522 11521 11520
11519 11518 11517 11515 11514 11513 11511 11509
11508 11507 11505 11504 11503 11502 11501 11500
11499 11498 11496 11495 11493 11492 11491 11490
11489 11488 11487 11485 11484 11483 11482 11479
11478 11477 11474 11473 11472 11470 11469 11468
11467 11464 11463 11462 11459 11458 11457 11456
11455 11453 11452 11451 11449 11448 11446 11443
00000000: 222e 0000 1e2e 0000 1c2e 0000 192e 0000
00000010: 182e 0000 172e 0000 162e 0000 142e 0000
00000020: 132e 0000 122e 0000 112e 0000 0f2e 0000
00000030: 0c2e 0000 0b2e 0000 0a2e 0000 092e 0000
00000040: 082e 0000 072e 0000 042e 0000 022e 0000
00000050: fe2d 0000 fd2d 0000 fc2d 0000 fa2d 0000
00000060: f72d 0000 f62d 0000 f42d 0000 f32d 0000
00000070: f22d 0000 f12d 0000 f02d 0000 ef2d 0000
00000080: eb2d 0000 ea2d 0000 e82d 0000 e72d 0000
00000090: e62d 0000 e52d 0000 e42d 0000 e32d 0000
000000a0: e22d 0000 e02d 0000 df2d 0000 de2d 0000
000000b0: dd2d 0000 dc2d 0000 db2d 0000 da2d 0000
000000c0: d92d 0000 d82d 0000 d72d 0000 d62d 0000
000000d0: d42d 0000 d32d 0000 d12d 0000 d02d 0000
000000e0: cf2d 0000 ce2d 0000 cb2d 0000 c92d 0000
000000f0: c82d 0000 c72d 0000 c52d 0000 c32d 0000
00000100: c12d 0000 c02d 0000 bf2d 0000 bd2d 0000
00000110: bb2d 0000 ba2d 0000 b92d 0000 b82d 0000
00000120: b72d 0000 b52d 0000 b32d 0000 b12d 0000
00000130: b02d 0000 ae2d 0000 ab2d 0000 a82d 0000
00000140: a72d 0000 a62d 0000 a52d 0000 a32d 0000
00000150: a12d 0000 a02d 0000 9f2d 0000 9e2d 0000
00000160: 9d2d 0000 9c2d 0000 9b2d 0000 9a2d 0000
00000170: 992d 0000 982d 0000 972d 0000 952d 0000
00000180: 932d 0000 922d 0000 902d 0000 8f2d 0000
00000190: 8d2d 0000 8c2d 0000 8b2d 0000 8a2d 0000
000001a0: 892d 0000 872d 0000 862d 0000 852d 0000
000001b0: 822d 0000 7f2d 0000 7e2d 0000 7d2d 0000
000001c0: 7a2d 0000 782d 0000 762d 0000 752d 0000
000001d0: 732d 0000 712d 0000 6f2d 0000 6e2d 0000
000001e0: 6d2d 0000 6c2d 0000 6a2d 0000 692d 0000
000001f0: 682d 0000 672d 0000 662d 0000 652d 0000
00000200: 632d 0000 612d 0000 602d 0000 5f2d 0000
00000210: 5e2d 0000 5c2d 0000 5a2d 0000 572d 0000
00000220: 562d 0000 552d 0000 542d 0000 522d 0000
00000230: 512d 0000 4f2d 0000 4e2d 0000 4d2d 0000
00000240: 4b2d 0000 4a2d 0000 492d 0000 482d 0000
00000250: 472d 0000 462d 0000 452d 0000 442d 0000
00000260: 432d 0000 422d 0000 412d 0000 402d 0000
00000270: 3f2d 0000 3e2d 0000 3d2d 0000 3b2d 0000
00000280: 3a2d 0000 392d 0000 382d 0000 372d 0000
00000290: 352d 0000 342d 0000 322d 0000 2f2d 0000
000002a0: 2e2d 0000 2d2d 0000 2c2d 0000 2a2d 0000
000002b0: 272d 0000 252d 0000 242d 0000 232d 0000
000002c0: 222d 0000 212d 0000 1f2d 0000 1d2d 0000
000002d0: 1b2d 0000 1a2d 0000 192d 0000 182d 0000
000002e0: 172d 0000 162d 0000 142d 0000 122d 0000
000002f0: 112d 0000 0f2d 0000 0e2d 0000 0d2d 0000
00000300: 0c2d 0000 0a2d 0000 092d 0000 082d 0000
00000310: 042d 0000 022d 0000 012d 0000 002d 0000
00000320: ff2c 0000 fe2c 0000 fd2c 0000 fb2c 0000
00000330: fa2c 0000 f92c 0000 f72c 0000 f52c 0000
00000340: f42c 0000 f32c 0000 f12c 0000 f02c 0000
00000350: ef2c 0000 ee2c 0000 ed2c 0000 ec2c 0000
00000360: eb2c 0000 ea2c 0000 e82c 0000 e72c 0000
00000370: e52c 0000 e42c 0000 e32c 0000 e22c 0000
00000380: e12c 0000 e02c 0000 df2c 0000 dd2c 0000
00000390: dc2c 0000 db2c 0000 da2c 0000 d72c 0000
000003a0: d62c 0000 d52c 0000 d22c 0000 d12c 0000
000003b0: d02c 0000 ce2c 0000 cd2c 0000 cc2c 0000
000003c0: cb2c 0000 c82c 0000 c72c 0000 c62c 0000
000003d0: c32c 0000 c22c 0000 c12c 0000 c02c 0000
000003e0: bf2c 0000 bd2c 0000 bc2c 0000 bb2c 0000
000003f0: b92c 0000 b82c 0000 b62c 0000 b32c 0000

indptr i4 [26]
0 8313 10545 14619 16481 17810 18812 20098
21224 22383 23426 24314 25233 26101 26871 27329
27508 27582 28038 28256 28459 28593 28686 28764
28828 28861
00000000: 0000 0000 7920 0000 3129 0000 1b39 0000
00000010: 6140 0000 9245 0000 7c49 0000 824e 0000
00000020: e852 0000 6f57 0000 825b 0000 fa5e 0000
00000030: 9162 0000 f565 0000 f768 0000 c16a 0000
00000040: 746b 0000 be6b 0000 866d 0000 606e 0000
00000050: 2b6f 0000 b16f 0000 0e70 0000 5c70 0000
00000060: 9c70 0000 bd70 0000

shape i4 [2]
25 11812
00000000: 1900 0000 242e 0000
