Models/NLPmodels/BERTopic_v1/topic_embeddings.safetensors (safetensors, 38488 bytes, 1 tensors)

topic_embeddings f4 [25, 384]
0	0xbceb58cb	-0.028728863
1	0x3c62271f	0.0138032725
2	0x3c40c823	0.011766466
3	0xbbf06249	-0.0073359353
4	0x3c129a0e	0.008947862
5	0xbc2cfb2c	-0.010557931
6	0x3d04a644	0.032385126
7	0x3c4707f2	0.01214789
8	0xb9271be8	-0.00015936757
9	0x3baf3f42	0.005348117
10	0xb9939eda	-0.00028156379
11	0xbb8849a6	-0.00415917
12	0xbbcc630f	-0.0062373946
13	0xbaf54c6f	-0.0018714796
14	0xbc55ff13	-0.013061303
15	0x3d03ec61	0.03220785
16	0x3c7091a8	0.014683165
17	0xbc97fe95	-0.018554011
18	0xbca05b6c	-0.019574843
19	0xbbbb4fb7	-0.00571629
20	0xbcde2ecc	-0.027121924
21	0xbc157c5f	-0.009123891
22	0x3bf57e71	0.0074918796
23	0x3cba5b3a	0.022748578
24	0xbc8f3b1a	-0.017484237
25	0xbb9d3750	-0.0047978535
26	0xbc615f0f	-0.013755574
27	0x3ca8e9a4	0.020619221
28	0xbc2df1ae	-0.010616703
29	0xbd2ea111	-0.042634074
30	0x3a163b04	0.000573084
31	0x3d0efce9	0.034909163
32	0x3bf0d679	0.007349786
33	0xbb84021b	-0.0040285713
34	0x3c5c8d46	0.013461417
35	0x3c7c15f4	0.015386093
36	0xbc030983	-0.007997873
37	0xbb8945bc	-0.004189221
38	0xbb3d7969	-0.0028911477
39	0xbc9cfc72	-0.019163344
40	0xbc1c1f97	-0.009529016
41	0xbd3f7e1b	-0.046751123
42	0x399f4427	0.0003037762
43	0x3bd711da	0.0065634074
44	0xbb95f7e5	-0.0045766705
45	0x3beac94f	0.007165111
46	0x3b1a1e1b	0.002351648
47	0xba7e8d57	-0.00097103923
48	0x3bc97773	0.0061482727
49	0x3ab5c725	0.0013868554
50	0xbd0e0ade	-0.034678333
51	0xbd2d52c0	-0.042315245
52	0x3c2a73fc	0.010403629
53	0xbcc484b7	-0.023989065
54	0xbbdf0a0b	-0.006806617
55	0x3c3d8635	0.011567642
56	0xbc9a7ace	-0.018857386
57	0x3bbdd790	0.0057935193
58	0x3ca2a68d	0.019854808
59	0xbc557fe5	-0.013030981
60	0x3c777012	0.015102403
61	0xb715cbc6	-8.928537e-06
62	0xbce2ab67	-0.027669622
63	0xbc837f56	-0.01605193
64	0x3cb256cd	0.021769905
65	0xbcd61ca7	-0.02613671
66	0xbbe491a2	-0.0069753686
67	0x3c18bc82	0.0093222875
68	0xbc7794d5	-0.015111168
69	0xbbf15d29	-0.007365842
70	0x3c3f6e1d	0.011683968
71	0x3b0ce8c7	0.002150105
72	0xbc85b2b1	-0.016320558
73	0x3bc11c69	0.0058932793
74	0x3cb0bc96	0.0215743
75	0x3c9a13ab	0.018808207
76	0x3ca99a6f	0.020703522
77	0xbc6e6118	-0.014549516
78	0x3d087c78	0.033321828
79	0x3abfee73	0.0014643207
80	0xbc786678	-0.015161149
81	0xbcde6c49	-0.027151244
82	0xbd186fd7	-0.037216034
83	0xba8b6a4a	-0.0010636535
84	0xb9a6f3c3	-0.00031843604
85	0x3b4ded9a	0.003142214
86	0x3bd61c06	0.0065341024
87	0xbbd6d731	-0.0065564145
88	0xbb9b78c7	-0.0047446224
89	0x3bf29b7e	0.00740379
90	0x3b60b153	0.003428538
91	0x3bb9d323	0.0056709214
92	0x3c50c635	0.012742569
93	0x3b985ddf	0.004649862
94	0xbce01b93	-0.027356898
95	0x3c180eaf	0.009280845
96	0xbc0ab264	-0.008465383
97	0xbd190627	-0.037359383
98	0xbd544d73	-0.051831674
99	0x3da9cd64	0.08291128
100	0x3bd3240a	0.006443505
101	0x3d1e99cb	0.038720887
102	0x3b60a83a	0.0034279958
103	0x3b33298c	0.0027337996
104	0xbb569735	-0.0032743935
105	0xbc68492d	-0.014177603
106	0xba7bbc18	-0.0009602918
107	0x3ce61588	0.028086439
108	0x3bbaa0ad	0.0056954236
109	0xbc50b03f	-0.012737333
110	0xbb9f0b92	-0.004853674
111	0x3bcc9eb5	0.0062445053
112	0xbc12d4dc	-0.008961882
113	0xbc511616	-0.012761613
114	0x3c86d8e2	0.01646084
115	0x3b879314	0.004137406
116	0xbc99e357	-0.018785162
117	0x3cc18e9e	0.023627575
118	0x3cebdeda	0.028792787
119	0xbd1e181a	-0.038597204
120	0xbb28674d	-0.0025696338
121	0x3b2a570e	0.002599183
122	0xbc7f72bb	-0.015591319
123	0x3af105fc	0.0018388624
124	0xbbbd16c0	-0.0057705343
125	0xbcc787da	-0.024356771
126	0x3c330610	0.010926738
127	0x08f2e859	1.461947e-33
128	0x3c5aaa6c	0.013346296
129	0x3c63e81a	0.013910318
130	0x3c14fd49	0.009093591
131	0x3cdd1d0e	0.026991393
132	0x3a579f42	0.00082253304
133	0x3a41d064	0.00073934183
134	0xbca15987	-0.01969601
135	0x3c61f77c	0.013791915
136	0xbc98831f	-0.01861721
137	0xbc3a6c19	-0.011378312
138	0xbc0e8fdb	-0.00870129
139	0xbbfd31a0	-0.007726863
140	0x3a3913b7	0.00070601277
141	0xbc376804	-0.011194233
142	0x3b7b2f37	0.0038327703
143	0xbd06a628	-0.032873303
144	0xbbe16186	-0.006878081
145	0x3c8a0208	0.016846672
146	0xbc9aad2e	-0.018881407
147	0xbbcb2986	-0.0062000183
148	0xba9d8799	-0.0012018561
149	0xba235d60	-0.00062318705
150	0xbb94e412	-0.0045437897
151	0x3b707a7e	0.0036694105
152	0x3c9a6a7f	0.01884961
153	0x3cadf4a8	0.021234825
154	0x3d0e00e9	0.034668837
155	0xbc4bcac5	-0.012438481
156	0x3ca86bdb	0.020559242
157	0x3cf5f20b	0.030022642
158	0x39d82fda	0.00041234383
159	0x3c822e58	0.015891239
160	0xbc8a1cd1	-0.016859444
161	0x3ba382c2	0.004989953
162	0xbaa6c764	-0.0012724218
163	0xbbf0ddf5	-0.007350678
164	0xbc2f1187	-0.010685331
165	0xbcd7370e	-0.02627137
166	0xbb04d03d	-0.0020265721
167	0xbba30301	-0.0049747233
168	0xbc71607c	-0.014732476
169	0x3c619ade	0.013769833
170	0xbc8d4b13	-0.017247712
171	0xbc5997d6	-0.013280829
172	0xbb9ce0d2	-0.004787543
173	0x3c6437c2	0.013929309
174	0x3d3bafe9	0.045822058
175	0x3c576385	0.013146286
176	0x3d039e63	0.03213347
177	0x3baf78fb	0.005354998
178	0xbbdfc5ca	-0.006828998
179	0x3c278a84	0.010225896
180	0xbc8ca86b	-0.017170152
181	0xbc13b993	-0.009016412
182	0xbc8c0927	-0.017094208
183	0xbb34606f	-0.00275233
184	0x3c650858	0.01397904
185	0x3c0472c8	0.008084007
186	0x3cb0394c	0.021511696
187	0x3c237cdd	0.0099785
188	0x3c87d1df	0.016579567
189	0x3c923593	0.017847812
190	0xbb4fe9d5	-0.0031725068
191	0xbbf8b775	-0.007590229
192	0xbc965263	-0.018349832
193	0xbcb43a0d	-0.022000337
194	0xbb830213	-0.00399805
195	0xbce4724c	-0.027886532
196	0x3b2c12f7	0.002625642
197	0xba343a48	-0.00068751397
198	0xbb2071ee	-0.002448197
199	0xbb2dad3f	-0.0026500968
200	0x3d00a086	0.031403087
201	0xbbbcd4d6	-0.0057626767
202	0xbc7cd80b	-0.015432368
203	0xbc1f73d7	-0.009732208
204	0x3c0f9afc	0.0087649785
205	0x3b74f6ce	0.0037378552
206	0x3bf144a0	0.007362917
207	0xbbe7706e	-0.007062963
208	0xbbac7954	-0.005263487
209	0xbb87d75c	-0.004145546
210	0xb83e0816	-4.530706e-05
211	0xbc5f2c45	-0.0136213945
212	0x3ce3960b	0.027781507
213	0xbbe86520	-0.007092133
214	0x3c0dd4b5	0.00865667
215	0xbcac08a6	-0.021000218
216	0xbc972962	-0.01845235
217	0x3ca90d2a	0.02063616
218	0xbd055789	-0.032554183
219	0xbc17cd86	-0.009265309
220	0x3c672a82	0.014109256
221	0x3c9fdab1	0.01951346
222	0xbc879685	-0.016551265
223	0x89270471	-2.0103982e-33
224	0xbc30b7d5	-0.0107860165
225	0xbb82b941	-0.003989369
226	0xbc26efb0	-0.010188982
227	0x3ce72712	0.028216872
228	0x3c88af6b	0.016685208
229	0xbab87c98	-0.0014075218
230	0x3b884a8c	0.0041592773
231	0x3ccd4a50	0.025059849
232	0x3c2c8ce0	0.010531634
233	0x3d29e845	0.041481275
234	0x391917e4	0.00014600117
235	0x3b9381d0	0.004501559
236	0x3bb77933	0.005599165
237	0xba362f4a	-0.00069497956
238	0x3cb22ac8	0.021748915
239	0xbcb52b05	-0.02211524
240	0x3d6091a8	0.05482641
241	0xbc91a495	-0.017778674
242	0xbd0f1262	-0.03492964
243	0x3bd1539e	0.006388142
244	0xbb83d5e1	-0.004023299
245	0x3cb8dec1	0.022567155
246	0xbce1be72	-0.027556632
247	0x3ce1c9e3	0.027562087
248	0xbc6bba02	-0.014387609
249	0x3caa1e8f	0.020766525
250	0x3c9afc87	0.018919243
251	0x3cbfdb95	0.023420135
252	0xbc9f5bcb	-0.01945295
253	0xba5f66a9	-0.00085220725
254	0xbc1c3aab	-0.009535472
255	0x3acbc28f	0.0015545654
